docker_items/model.pth (torch, 439732 bytes, 6 tensors)

fc1.weight f4 [128, 784]
0.002220669 -0.025335763 -0.03786053 0.014469589 -0.025023006 -0.0061578876 -0.0042501925 -0.012095575
-0.018556118 -0.011608736 -0.006857874 -0.032036193 -0.02568915 -0.010147766 -0.027218157 -0.040953185
-0.0068319757 -0.02220441 -0.00068267743 -0.027658591 0.020180594 0.012041912 0.0155973695 0.022262048
0.001530588 -0.018334217 -0.021240253 0.007588183 0.015191181 -0.0034970131 0.0017423867 0.0038199099
-0.004206005 0.007880476 0.008733239 -0.015346115 0.011783061 -0.0309628 -0.0005797138 -0.021186523
-0.0083940225 -0.017253134 -0.00848688 -0.006515228 -0.03481912 -0.010421293 -0.022574414 -0.024018466
0.024168704 -0.04143119 0.0037071619 0.0070013353 0.008376932 -0.0053314012 0.015764497 0.004722682
-0.008318932 -0.033838075 0.019811925 0.006081725 0.011136426 0.01702033 -0.007997264 0.016530855
0.01549355 -0.042818133 -0.024857225 -0.034959894 0.012220065 0.031623665 -0.020703495 0.0032319832
0.013587359 0.026519997 0.02769067 0.0026227054 0.019962503 -0.025044804 -0.01835963 0.009875324
0.004699784 0.015070965 0.010722186 -0.042961713 0.015240882 -0.017004631 -0.016126277 -0.04064407
-0.031010369 0.022345273 0.010342869 -0.033513114 0.0060751527 -0.024541425 -0.044853527 -0.054356772
-0.016835054 0.037571535 -0.03042617 0.044396482 0.026424466 0.07483835 0.10485368 0.062999435
0.050817985 0.038120743 -0.012686021 -0.018774651 -0.012863611 -0.03420093 -0.043637116 0.0017305617
-0.014334363 -0.021291167 0.009514012 -0.027939482 0.020411365 -0.016265683 -0.058087807 -0.08557934
-0.0961849 -0.069763504 -0.045486864 0.04467596 0.101970315 0.062442634 0.07243065 0.13714047
0.08151032 0.07156869 0.11179658 0.104014 0.09245404 0.024680931 0.0019476566 0.040293977
0.003606795 0.023769919 -0.039700735 -0.010293311 0.016346047 -0.045680363 -0.010010025 -0.020766942
-0.03012685 -0.094172396 -0.11036773 -0.13418375 -0.05834083 0.028492834 0.06685208 0.21181679
0.12322008 0.14360087 -0.019447684 0.010372828 0.018745797 0.046492506 0.10431738 -0.033946447
-0.024087137 0.020887995 -0.017094787 0.020881908 -0.009082568 0.019106008 -0.037931666 -0.009863577
-0.028516889 0.01925985 -0.041045904 -0.011231894 -0.06520346 -0.02724954 -0.061530203 -0.029896788
0.053941514 0.0018285031 0.077435635 0.21980739 0.17538744 0.10270247 -0.039179992 -0.12515472
-0.00070585066 -0.075053506 -0.024507195 -0.017702486 -0.07189394 -0.08971234 -0.037115112 0.017461333
0.022415688 -0.0019089091 -0.0032988018 -0.016990723 0.0033941234 -0.019782273 -0.03554052 -0.054447435
-0.02882458 0.010449857 0.009427349 -0.007463883 0.09190882 0.105411194 0.17318693 0.23568876
0.12128869 -0.06320273 -0.01466865 0.021776749 0.008440715 -0.029572282 -0.064669766 0.039023414
-0.03515201 -0.07422767 -0.107779905 -0.04456279 -0.0020380903 0.03883496 0.003188934 -0.03344985
-0.010432686 -0.04028476 0.0016289131 -0.03343923 -0.07146681 -0.02304449 0.05223329 -0.00883451
0.13519669 0.15466073 0.10357827 0.25875235 0.117291465 -0.23790585 -0.088343985 -0.01583378
-0.04431627 -0.1366464 -0.09503318 -0.14217128 -0.026481295 -0.042040806 -0.12877199 -0.026496813
0.017966133 0.023452379 -0.016961167 -0.0058949515 0.023864137 -0.027608039 -0.037318192 0.013526045
00000000: a588 113b f28c cfbc a513 1bbd db11 6d3c
00000010: 0cfd ccbc 1bc8 c9bb 3345 8bbb 852c 46bc
00000020: 0003 98bc 9132 3ebc 04b8 e0bb 6238 03bd
00000030: 0d72 d2bc d142 26bc 9df8 debc 87be 27bd
00000040: c4de dfbb 06e6 b5bc b5f5 32ba 4594 e2bc
00000050: c651 a53c 714b 453c 1c8c 7f3c e65e b63c
00000060: 039e c83a a431 96bc 0a00 aebc 4ba6 f83b
00000070: 6ee4 783c 252e 65bb cc60 e43a 7457 7a3b
00000080: 87d2 89bb 1d1d 013c dc15 0f3c 466e 7bbc
00000090: bd0d 413c b3a5 fdbc eff7 17ba 5c8f adbc
000000a0: 1587 09bc 7256 8dbc 8e0c 0bbc b27d d5bb
000000b0: 7e9e 0ebd 12be 2abc faed b8bc 60c2 c4bc
000000c0: 72fd c53c c0b3 29bd dbf3 723b 756b e53b
000000d0: 663f 093c 09b3 aebb 8c24 813c bac0 9a3b
000000e0: 214c 08bc cb99 0abd 9e4c a23c 3549 c73b
000000f0: 8e75 363c 386e 8b3c f506 03bc b76b 873c
00000100: a9d8 7d3c 1162 2fbd 61a1 cbbc 1b32 0fbd
00000110: ab36 483c d187 013d 609a a9bc aecf 533b
00000120: 849d 5e3c 7740 d93c 8bd7 e23c b2e1 2b3b
00000130: 6788 a33c c32a cdbc ef66 96bc 1ccc 213c
00000140: a500 9a3b 35ec 763c 1cac 2f3c 9ff8 2fbd
00000150: e4b4 793c 4c4d 8bbc 411b 84bc 657a 26bd
00000160: 7509 febc 6f0d b73c 2375 293c 0c45 09bd
00000170: 1312 c73b 190b c9bc 55b8 37bd 35a5 5ebd
00000180: abe9 89bc 9ce4 193d 4e40 f9bc 16d9 353d
00000190: 1f78 d83c d944 993d 87bd d63d d905 813d
000001a0: 8526 503d 7f24 1c3d 07d9 4fbc 4ccd 99bc
000001b0: e5c1 52bc 4616 0cbd d5bc 32bd 04d4 e23a
000001c0: adda 6abc d06a aebc a9e0 1b3c 57e1 e4bc
000001d0: bc35 a73c 9c3f 85bc 7bed 6dbd 3944 afbd
000001e0: 97fc c4bd 2be0 8ebd 6f50 3abd 24fe 363d
000001f0: d0d5 d03d d9c3 7f3d 8556 943d 8d6e 0c3e
00000200: e2ee a63d 9b92 923d 9bf5 e43d 4b05 d53d
00000210: 8b58 bd3d aa2f ca3c 8348 ff3a 4c0b 253d
00000220: fb5f 6c3b 22b9 c23c 3d9d 22bd 47a5 28bc
00000230: 25e8 853c 551b 3bbd 1701 24bc 6f1f aabc
00000240: 95cc f6bc 75dd c0bd 7a08 e2bd 7767 09be
00000250: cbf6 6ebd ce69 e93c bee9 883d 80e6 583e
00000260: cf5a fc3d 1b0c 133e c050 9fbc cbf2 293c
00000270: c990 993c ed6e 3e3d 5aa4 d53d 6e0b 0bbd
00000280: 6352 c5bc 4d1d ab3c 5e0a 8cbc 8910 ab3c
00000290: 0dcf 14bc 3484 9c3c 3c5e 1bbd d79a 21bc
000002a0: 409c e9bc d5c6 9d3c c01f 28bd fa05 38bc
000002b0: 6489 85bd 6d3a dfbc 1807 7cbd 1cea f4bc
000002c0: c7f1 5c3d 62aa ef3a 9396 9e3d 3015 613e
000002d0: c498 333e ac55 d23d 337b 20bd 8f28 00be
000002e0: d608 39ba a7b5 99bd 50c3 c8bc ce04 91bc
000002f0: 213d 93bd 1abb b7bd 0406 18bd 120b 8f3c
00000300: 1ba1 b73c 5c34 faba b630 58bb 2130 8bbc
00000310: f16f 5e3b 6f0e a2bc f092 11bd 4604 5fbd
00000320: 8721 ecbc e135 2b3c 2b75 1a3c 9793 f4bb
00000330: b13a bc3d d3e1 d73d ea57 313e 6558 713e
00000340: 3466 f83d 6f70 81bd c754 70bc 2765 b23c
00000350: ed4a 0a3c 9241 f2bc 9571 84bd 04d7 1f3d
00000360: 8efb 0fbd ad04 98bd b6bb dcbd 7987 36bd
00000370: 7b91 05bb 6811 1f3d 6ffd 503b b602 09bd
00000380: dbed 2abc a201 25bd 4181 d53a 93f7 08bd
00000390: 315d 92bd ccc7 bcbc 93f2 553d 9fbe 10bc
000003a0: 0071 0a3e 625f 1e3e d820 d43d 307b 843e
000003b0: 8236 f03d 979d 73be b1ed b4bd d8b5 81bc
000003c0: fa84 35bd 09ed 0bbe c2a0 c2bd 5995 11be
000003d0: 4def d8bc fb32 2cbd cedc 03be d80f d9bc
000003e0: b62d 933c 341f c03c 25f2 8abc 702a c1bb
000003f0: b97e c33c 412a e2bc f6da 18bd 589c 5d3c

fc1.bias f4 [128]
-0.016193056 0.0019829166 0.02199738 0.003091669 -0.017197194 -0.016536308 0.014629031 0.019609155
-0.0011200992 -0.010934432 -0.011220595 0.024546806 -0.016371286 0.031646773 0.02980048 -0.023124462
-0.014765063 -0.022477198 -0.029230261 -0.0124699185 0.011854858 -0.032463443 0.01016837 0.025415143
-0.006031537 0.0070791766 0.009689776 -0.030395277 -0.0074346527 -0.013747389 0.017748004 0.020066861
-0.045237 0.029420447 -0.04092451 -0.048225038 0.018555429 0.010616964 -0.0014717338 0.0065680486
-0.008737973 -0.04977885 0.01809192 -0.005521358 0.019632567 -0.010394826 -0.013968552 -0.03031096
-0.0062667024 -0.020172333 0.02218758 0.02228328 -0.019580519 0.031307187 0.032069176 -0.037092756
0.007898497 0.0414909 -0.0023345866 0.0028294304 -0.019572476 -0.018509582 -0.003885451 -0.030985069
0.018113771 -0.0021446738 0.007665897 0.02120047 0.030696599 -0.009830503 0.012223865 -0.03339305
-0.0011039424 0.01020527 0.016432509 -0.012021851 0.014300065 -0.016182566 0.0063402415 -0.045128826
-0.013310242 -0.04245628 -0.003222966 -0.044099927 -0.01230166 0.015284348 -0.026058152 -0.010203225
-0.008434645 -0.0040431824 0.013208619 0.0154573 -0.02492124 -0.007900298 -0.0039451653 -0.022217482
0.055009887 -0.027697574 0.0192078 -0.033865295 -0.024190944 -0.037681296 -0.034566954 0.014024876
-0.03428421 0.0011476646 -0.041296422 -0.019562878 -0.008368805 0.0022331027 -0.015379379 0.024453742
-0.010426029 -0.027855981 0.01044195 -0.029778857 0.03652956 0.02310121 -0.018267516 0.008563851
0.01302542 0.018498057 0.027834484 -0.0022681653 0.015100758 -0.009148119 -0.034274135 0.014825876
00000000: 4da7 84bc d2f3 013b d933 b43c 999d 4a3b
00000010: 21e1 8cbc 2777 87bc 9aae 6f3c 61a3 a03c
00000020: 4bd0 92ba 5526 33bc 96d6 37bc 6216 c93c
00000030: 131d 86bc 0ca0 013d 2320 f43c 836f bdbc
00000040: 2ae9 71bc 1a22 b8bc 4d74 efbc a14e 4cbc
00000050: e13a 423c 63f8 04bd 3c99 263c 6b33 d03c
00000060: 33a4 c5bb 70f8 e73b dec1 1e3c 84ff f8bc
00000070: 639e f3bb bb3c 61bc 4364 913c 4263 a43c
00000080: 6f4a 39bd 2603 f13c 76a0 27bd 9e87 45bd
00000090: 8e01 983c c6f2 2d3c 31e7 c0ba c938 d73b
000000a0: b729 0fbc e8e4 4bbd 8235 943c 82ec b4bb
000000b0: 7ad4 a03c 0f4f 2abc 5bdc 64bc b14e f8bc
000000c0: e958 cdbb 7340 a5bc bac2 b53c 6d8b b63c
000000d0: 5367 a0bc f73b 003d f85a 033d 93ee 17bd
000000e0: b368 013c 5df2 293d ddff 18bb f76d 393b
000000f0: 7556 a0bc 68a1 97bc 0da3 7ebb 66d4 fdbc
00000100: 5563 943c a88d 0cbb 3432 fb3b 9cac ad3c
00000110: 6f77 fb3c 1e10 21bc 9b46 483c 27c7 08bd
00000120: 29b2 90ba 0134 273c 789d 863c 4cf7 44bc
00000130: d24a 6a3c 4d91 84bc cdc1 cf3b 01d9 38bd
00000140: 3413 5abc a3e6 2dbd 6638 53bb 20a2 34bd
00000150: e78c 49bc 346b 7a3c e877 d5bc 6d2b 27bc
00000160: 7731 0abc ac7c 84bb f768 583c 9d40 7d3c
00000170: a127 ccbc 4070 01bc 7246 81bb 7001 b6bc
00000180: 0c52 613d 06e6 e2bc ad59 9d3c 56b6 0abd
00000190: 162c c6bc b457 1abd 1496 0dbd 98c8 653c
000001a0: 9a6d 0cbd 3c6d 963a 7026 29bd 5442 a0bc
000001b0: 501d 09bc 3f59 123b caf9 7bbc 3753 c83c
000001c0: efd1 2abc 3a32 e4bc b614 2b3c caf2 f3bc
000001d0: 05a0 153d c03e bd3c c2a5 95bc 654f 0c3c
000001e0: 9268 553c 3d89 973c 2505 e43c 80a5 14bb
000001f0: 2b69 773c fee1 15bc 0963 0cbd 3be8 723c

fc2.weight f4 [64, 128]
-0.06416031 0.070679665 0.03792273 0.05710044 0.03367018 -0.06811899 -0.014571315 0.052800763
-0.106352314 -0.0010403976 0.03927167 0.08286612 0.021053448 -0.082785636 0.057976373 -0.009797776
0.02421368 0.06592641 -0.33534297 0.20630711 -0.011921503 -0.035349894 0.046990145 -0.050149012
-0.08722128 -0.017293248 0.17152001 -0.015777992 -0.04412521 -0.09233686 0.0026099822 -0.05744093
0.020449705 -0.10443115 0.09015904 0.13194452 -0.044903684 -0.14357564 0.062170338 -0.0831638
-0.06886096 0.008058555 -0.036297094 -0.21806045 0.252498 -0.1372057 0.022812823 -0.03195075
-0.047996305 0.04319818 -0.06789856 0.06880551 0.017333928 -0.08772347 0.05608994 0.010102037
0.03678765 0.074029244 -0.12665188 0.16290285 0.0061270506 -0.1251607 -0.04211998 -0.06569708
0.065242566 0.054070864 -0.016969252 -0.25149077 0.087767415 -0.045520723 -0.018209046 0.15020297
-0.040731765 -0.023355104 0.08224293 -0.027453693 -0.061061222 0.21562606 0.055386685 0.026931163
0.0060051037 0.025977084 -0.053803843 -0.05909132 -0.02493199 -0.012984322 -0.09313195 -0.07340921
-0.009361277 0.08935334 0.05002599 0.1662577 -0.021496993 -0.09240926 0.043840535 0.060003057
-0.08412717 -0.014688656 -0.044647273 -0.055508733 -0.0013987183 -0.06446653 0.024592692 0.08650825
0.044722192 -0.023512863 0.12238767 -0.20880903 -0.0077206623 -0.051623203 0.010564809 0.0015162833
-0.042160265 -0.09759327 -0.076706804 0.16100903 0.08501304 -0.050196238 0.038944777 -0.03431846
-0.18934059 0.13740693 0.020113222 0.0688494 0.027210904 -0.046711423 0.18314777 0.029717734
-0.124945 0.063916214 -0.010701768 -0.055213094 -0.044938155 0.05709616 0.02840697 0.14328474
0.05414534 -0.022399291 -0.07143142 0.0312128 0.053339373 -0.0003630658 0.11881398 0.09405649
-0.054121234 0.10793984 0.06575542 -0.06252909 -0.05345007 0.021234393 -0.11092551 -0.09263761
-0.026767522 -0.08610916 -0.12974899 0.018280009 0.071608834 -0.041090734 -0.07354646 -0.07621271
0.05128952 0.06309025 -0.023199797 -0.049453627 -0.014193366 -0.013000207 0.090073965 -0.007282214
0.056660768 0.071383305 -0.063840576 0.20902377 -0.03125022 0.18513848 -0.0012289031 0.075149
0.0023840708 -0.07423855 -0.002616769 0.020606298 0.010998637 -0.075839415 -0.23411845 0.08173243
0.062631726 0.21332508 0.07559162 0.14312986 -0.022574726 0.02347638 0.07433795 0.05659759
-0.060494516 0.00083707453 0.051988333 0.020182567 -0.04229061 -0.0064507206 -0.012224555 -0.16477254
0.1349519 -0.06988346 -0.07516237 -0.00046389576 0.03759285 -0.0003920792 0.08138541 0.07293598
-0.00088024547 0.012857263 0.08010275 0.13878362 -0.11540762 0.04438708 0.0069221635 -0.022657026
0.03648668 -0.056138437 0.08592053 -0.0045569697 -0.008897067 0.0057115336 -0.048370846 0.008618721
0.03569735 0.07208839 0.060782883 -0.10227781 -0.11595799 0.10848099 0.055767473 0.01703656
0.047065213 0.15867236 -0.1129118 0.17160209 0.18083002 0.06898115 -0.050874542 -0.08229036
-0.060418833 0.09904855 0.05737264 0.1804645 -0.26378947 -0.04305491 0.02976474 0.04045256
-0.09145643 -0.030390687 0.054589525 -0.062328335 -0.011153045 -0.054153476 0.07043855 0.12571886
00000000: 7b66 83bd 80c0 903d dd54 1b3d 27e2 693d
00000010: bee9 093d f881 8bbd 86bc 6ebc 9d45 583d
00000020: 3ecf d9bd f35d 88ba 55db 203d b6b5 a93d
00000030: 4878 ac3c 848b a9bd a278 6d3d da86 20bc
00000040: c45b c63c 6d04 873d 13b2 abbe 2c42 533e
00000050: 6852 43bc 0dcb 10bd bd78 403d 0d69 4dbd
00000060: 12a1 b2bd 92aa 8dbc f1a2 2f3e d940 81bc
00000070: a3bc 34bd 1c1b bdbd 3c0c 2b3b 2e47 6bbd
00000080: 2486 a73c 00e0 d5bd 4ea5 b83d 771c 073e
00000090: edec 37bd 7e05 13be 53a6 7e3d c851 aabd
000000a0: fa06 8dbd 0808 043c 43ac 14bd 3d4b 5fbe
000000b0: 6b47 813e a77f 0cbe f5e1 ba3c cade 02bd
000000c0: c697 44bd 93f0 303d 660e 8bbd e7e9 8c3d
000000d0: e2ff 8d3c 5da8 b3bd 91be 653d 0483 253c
000000e0: a6ae 163d a59c 973d 08b1 01be 01d0 263e
000000f0: 6dc5 c83b 202a 00be 0086 2cbd 318c 86bd
00000100: e59d 853d 6979 5d3d 1a03 8bbc 66c3 80be
00000110: 67bf b33d f073 3abd 232b 95bc cfce 193e
00000120: 5ad6 26bd 3453 bfbc fb6e a83d 91e6 e0bc
00000130: 551b 7abd 14cd 5c3e 26dd 623d be9e dc3c
00000140: 76c6 c43b e5cd d43c 6b61 5cbd bd09 72bd
00000150: 2c3e ccbc 32bc 54bc f7bb bebd 9157 96bd
00000160: 0b60 19bc e2fe b63d 0de8 4c3d 753f 2a3e
00000170: 761a b0bc 1141 bdbd 2292 333d c4c5 753d
00000180: de4a acbd b0a8 70bc 0fe0 36bd 205d 63bd
00000190: 3355 b7ba 0707 84bd 9d76 c93c 3d2b b13d
000001a0: 9e2e 373d 0c9e c0bc 63a6 fa3d 09d2 55be
000001b0: 9cfd fcbb da72 53bd 0518 2d3c 06be c63a
000001c0: 3eb0 2cbd fbde c7bd 7518 9dbd 8ddf 243e
000001d0: 511b ae3d 929a 4dbd 8f84 1f3d 8391 0cbd
000001e0: 80e2 41be 67b4 0c3e 7cc4 a43c ea00 8d3d
000001f0: 67e9 de3c 7a54 3fbd 178b 3b3e 9b72 f33c
00000200: 2ae3 ffbd 81e6 823d 7856 2fbc 2027 62bd
00000210: 1211 38bd aadd 693d bcb5 e83c 3cb9 123e
00000220: 81c7 5d3d b87e b7bc a34a 92bd fcb1 ff3c
00000230: 637a 5a3d de59 beb9 be54 f33d b0a0 c03d
00000240: 3aae 5dbd 900f dd3d c7aa 863d 400f 80bd
00000250: 76ee 5abd c0f3 ad3c ea2c e3bd cab8 bdbd
00000260: 9047 dbbc 005a b0bd ebdc 04be f5bf 953c
00000270: a7a7 923d c24e 28bd 879f 96bd 6915 9cbd
00000280: f614 523d 7635 813d 800d bebc e38f 4abd
00000290: 4b8b 68bc d2fe 54bc b378 b83d a39f eebb
000002a0: 1f15 683d 6931 923d d9be 82bd 540a 563e
000002b0: 3b00 00bd f194 3d3e 2513 a1ba b8e7 993d
000002c0: 123e 1c3b 620a 98bd 197e 2bbb 8ace a83c
000002d0: a133 343c b251 9bbd bfbc 6fbe 5563 a73d
000002e0: 1045 803d e471 5a3e c7cf 9a3d a290 123e
000002f0: a2ee b8bc 8a51 c03c 7f3e 983d e0d2 673d
00000300: 19c9 77bd 1f6f 5b3a b8f1 543d e955 a53c
00000310: eb38 2dbd 9160 d3bb 8049 48bc 22ba 28be
00000320: d530 0a3e 0f1f 8fbd bbee 99bd 0937 f3b9
00000330: f6fa 193d fb8f cdb9 65ad a63d 765f 953d
00000340: 46c0 66ba 45a7 523c e90c a43d 4b1d 0e3e
00000350: d55a ecbd 3acf 353d 51d3 e23b 3a9b b9bc
00000360: 0f73 153d 6bf1 65bd 1af7 af3d a252 95bb
00000370: 01c5 11bc d127 bb3b 8220 46bd 8935 0d3c
00000380: 6237 123d 14a3 933d 79f7 783d 0777 d1bd
00000390: 627b edbd 482b de3d 6f6c 643d 4290 8b3c
000003a0: 74c7 403d 027b 223e 4d3e e7bd 75b8 2f3e
000003b0: 812b 393e fd45 8d3d d361 50bd d987 a8bd
000003c0: bd79 77bd f7d9 ca3d 93ff 6a3d b0cb 383e
000003d0: 6a0f 87be 585a 30bd 2fd5 f33c 95b1 253d
000003e0: 824d bbbd e4f5 f8bc 4499 5f3d ff4b 7fbd
000003f0: 43bb 36bc 09d0 5dbd 1642 903d 72bc 003e

fc2.bias f4 [64]
0.031791586 0.012165286 0.15141289 -0.044888787 -0.13105057 -0.05376759 -0.07865665 0.065753534
-0.01845565 0.072042815 0.11060082 0.03404267 -0.07177286 0.092097424 -0.03463599 0.038585663
-0.077667035 0.04341489 0.021148551 0.038155258 0.070412144 0.035017196 -0.08721069 -0.08906038
0.17395465 0.027706593 0.0323875 0.20482188 0.0381977 -0.02953301 -0.03783224 0.08755559
-0.0032946 0.118409924 0.0527384 0.0978611 -0.027067767 0.14799155 -0.002237256 0.084061764
-0.079762824 0.005987 0.061670333 -0.09350464 0.030238029 -0.10335741 -0.013938256 0.17600091
0.17002678 0.059823595 -0.0631538 -0.040502008 -0.031611107 -0.0025960945 -0.102101795 -0.043755498
0.08723784 -0.10262918 -0.03190227 0.09167416 -0.057804078 -0.008929138 -0.01142733 -0.11874661
00000000: e537 023d e850 473c fb0b 1b3e 4edd 37bd
00000010: 1f32 06be 683b 5cbd bd16 a1bd caa9 863d
00000020: 4e30 97bc 2f8b 933d af82 e23d 5470 0b3d
00000030: a6fd 92bd 939d bc3d 78de 0dbd 000c 1e3d
00000040: e50f 9fbd d0d3 313d ba3f ad3c b048 1c3d
00000050: 3e34 903d 316e 0f3d 859b b2bd 4a65 b6bd
00000060: 2b21 323e f0f8 e23c c1a8 043d d4bc 513e
00000070: 3175 1c3d 36ef f1bc fbf5 1abd 5850 b33d
00000080: 37ea 57bb e780 f23d 3804 583d 676b c83d
00000090: 39bd ddbc 198b 173e ed9e 12bb 9328 ac3d
000000a0: b15a a3bd 992e c43b 089a 7c3d 5c7f bfbd
000000b0: beb5 f73c 0dad d3bd 485d 64bc 9539 343e
000000c0: 801b 2e3e 9609 753d c856 81bd 6fe5 25bd
000000d0: a67a 01bd 3d23 2abb bf1a d1bd f738 33bd
000000e0: c1a9 b23d 3f2f d2bd f4ab 02bd a9bf bb3d
000000f0: f8c3 6cbd 854b 12bc b239 3bbc 6c31 f3bd

fc3.weight f4 [10, 64]
0.12842391 -0.058375962 0.05027792 0.27202806 -0.21215479 -0.26378465 0.12226468 0.1476211
0.04945799 -0.078361474 0.18213841 -0.041830506 -0.11833257 -0.08466769 0.13419694 -0.33714563
-0.012009243 -0.039718024 -0.038893875 -0.15799308 -0.04132386 -0.1429813 -0.08840397 -0.26559576
0.10091604 0.00549186 0.26310667 -0.031160846 -0.13599993 -0.10661338 -0.03159867 0.2347083
0.18507004 -0.06315407 -0.1279525 -0.14762235 0.095507614 -0.04419856 0.052250594 0.06945161
0.09135381 0.07746146 -0.18575934 -0.1547261 -0.009199926 -0.088392094 0.20978165 0.20500343
0.053091027 -0.14009465 0.0994947 -0.08633733 -0.092350274 0.06840064 0.051025353 -0.22166322
-0.43564552 0.030101074 -0.3432938 -0.19650052 0.052730843 0.0050706714 -0.17246911 -0.32996342
-0.26358002 0.12274209 -0.32207364 -0.41093138 -0.11156801 0.16081841 0.110646725 -0.07504656
0.19145183 0.07172339 0.12905215 -0.08224297 -0.09256255 0.032620557 -0.34307316 0.0687189
0.01941119 -0.014112356 -0.1338209 0.07096496 -0.100580394 0.047848657 0.10437093 0.21188816
-0.33117133 -0.23002665 -0.012180061 -0.11632134 0.08353188 0.059625644 0.294007 -0.12727182
0.024722796 -0.3560815 -0.15549675 0.16045395 0.07590038 -0.28321344 0.1006075 -0.12823038
0.078932405 0.0979682 0.013825627 -0.13608702 -0.010649577 -0.1018373 0.0026272044 -0.22411653
-0.0983204 0.120082304 0.14273702 -0.12031223 0.025762122 -0.06382774 0.026750388 0.086353175
0.14511392 0.09052838 -0.25053602 0.0038041119 -0.0029187063 -0.092608914 0.089999154 -0.20330903
0.15633625 -0.1911326 0.013414179 -0.082010396 0.07867113 -0.10400134 0.11618135 -0.05564967
0.15454467 -0.011516874 -0.018847983 -0.2737348 0.2053055 0.04582758 -0.13310586 0.19046037
0.11185547 0.18400058 -0.066076145 0.038417805 0.029410621 0.06287387 0.15445754 0.15885931
0.0036450184 -0.19280785 0.18770729 -0.34243977 -0.11347386 0.2984715 -0.034093685 -0.037952837
-0.023419231 -0.14647341 -0.14767478 -0.33550754 -0.018783906 0.17120528 0.11705324 0.019922571
0.10191876 -0.16228117 -0.28616852 0.20569691 0.03462086 -0.07741489 -0.07348853 0.006401976
-0.100579165 -0.0539644 0.0069729537 -0.04931193 0.02545345 0.30249476 -0.10315013 0.13931462
-0.19374159 -0.013368504 -0.11939053 -0.33059308 0.010233594 0.07195255 -0.3006169 0.27259058
0.13226858 0.15211603 0.059620176 -0.18827555 0.15501392 0.07034027 -0.08476482 0.1370906
-0.20522526 -0.10920063 -0.18784995 0.07304657 -0.2692685 -0.22258031 -0.16966003 -0.11999236
-0.017308298 0.09122009 -0.08270499 0.05620986 0.12953463 -0.23068984 0.19859424 -0.20895125
-0.023602363 -0.20906742 0.110688426 -0.06182843 0.042740643 0.0788956 -0.19092382 -0.1787433
-0.08401937 -0.050115757 0.045390166 -0.119623534 0.13570641 0.13862652 0.07430573 0.11071268
-0.039017297 -0.024161693 0.0029021718 0.008252122 0.06935252 -0.11645537 0.009733495 -0.03739034
0.068769686 0.27933484 0.03851564 -0.14569797 0.17475194 -0.34550193 -0.05507798 0.11061168
0.046921756 0.109169 0.15365273 0.07981749 0.0062359744 -0.0067449007 0.020979872 -0.054777127
00000000: 8f81 033e a21b 6fbd 38f0 4d3d 4347 8b3e
00000010: 1b3f 59be c80e 87be e865 fa3d fc29 173e
00000020: 7694 4a3d fb7b a0bd 7e82 3a3e 7756 2bbd
00000030: 5958 f2bd 4166 adbd ec6a 093e 5a9e acbe
00000040: 6ac2 44bc 5eaf 22bd 2f4f 1fbd f0c8 21be
00000050: 3543 29bd b169 12be 240d b5bd 2bfc 87be
00000060: 12ad ce3d 10f5 b33b ebb5 863e 0845 ffbc
00000070: 9143 0bbe 1e58 dabd 9b6d 01bd 5f57 703e
00000080: 0083 3d3e ec56 81bd fb05 03be 502a 17be
00000090: 7f99 c33d 8d09 35bd b804 563d a53c 8e3d
000000a0: b517 bb3d 1da4 9e3d b237 3ebe 8570 1ebe
000000b0: 49bb 16bc ea06 b5bd 00d1 563e 6bec 513e
000000c0: fa75 593d f974 0fbe e1c3 cb3d a0d1 b0bd
000000d0: 2422 bdbd a215 8c3d f6ff 503d affb 62be
000000e0: ee0c dfbe 8796 f63c 34c4 afbe 6f37 49be
000000f0: 4cfc 573d e027 a63b be9b 30be f7f0 a8be
00000100: f6f3 86be 3460 fb3d d6e6 a4be 9965 d2be
00000110: c57d e4bd 95ad 243e c09a e23d 03b2 99bd
00000120: f30b 443e b6e3 923d 3f26 043e 016f a8bd
00000130: 6f91 bdbd 229d 053d 49a7 afbe 7fbc 8c3d
00000140: 3704 9f3c 8337 67bc 5908 09be 1456 913d
00000150: 18fd cdbd f4fc 433d 6dc0 d53d 36f9 583e
00000160: 4a8f a9be 1b8c 6bbe e18e 47bc e239 eebd
00000170: c312 ab3d 053a 743d 1688 963e 8b53 02be
00000180: 7687 ca3c 5050 b6be 8a3a 1fbe 0a4e 243e
00000190: a971 9b3d 5a01 91be 4e0b ce3d d34e 03be
000001a0: 50a7 a13d 8da3 c83d e284 623c 655a 0bbe
000001b0: 907b 2ebc 1390 d0bd 2d2d 2c3b ce7e 65be
000001c0: 355c c9bd b6ed f53d a729 123e 4266 f6bd
000001d0: 160b d33c 1eb8 82bd a123 db3c efd9 b03d
000001e0: be98 143e f166 b93d 4246 80be 684e 793b
000001f0: c447 3fbb bea9 bdbd 7a51 b83d 3e30 50be
00000200: 9c16 203e 44b8 43be 25c7 5b3c 11f5 a7bd
00000210: 541e a13d a8fe d4bd 7df0 ed3d e9f0 63bd
00000220: f540 1e3e 45b1 3cbc 1667 9abc f826 8cbe
00000230: 9b3b 523e b3b5 3b3d e74c 08be 0b08 433e
00000240: 7b14 e53d a66a 3c3e ee52 87bd fd5b 1d3d
00000250: 8bee f03c 04c4 803d 1e2a 1e3e 04ac 223e
00000260: 43e1 6e3b 6c6f 45be 5736 403e 4454 afbe
00000270: fc64 e8bd 42d1 983e d2a5 0bbd 6f74 1bbd
00000280: b0d9 bfbc 20fd 15be 0f38 17be a5c7 abbe
00000290: b5e0 99bc 7050 2f3e 9cb9 ef3d a934 a33c
000002a0: c8ba d03d 092d 26be ae84 92be 36a2 523e
000002b0: 9ace 0d3d b38b 9ebd 2881 96bd abc7 d13b
000002c0: 73fc cdbd c609 5dbd 607d e43b 4efb 49bd
000002d0: c183 d03c 98e0 9a3e 6040 d3bd 7ea8 0e3e
000002e0: 3264 46be 9207 5bbc 0683 f4bd 7f43 a9be
000002f0: ceaa 273c dc5b 933d 75ea 99be fe90 8b3e
00000300: 6a71 073e 4ec4 1b3e 4934 743d 4ecb 40be
00000310: f8bb 1e3e 8f0e 903d 2e99 adbd 7a61 0c3e
00000320: 9226 52be 94a4 dfbd bd5b 40be 7199 953d
00000330: 90dd 89be 18ec 63be 5cbb 2dbe 8ebe f5bd
00000340: 22ca 8dbc 99d1 ba3d 3c61 a9bd 4f3c 663d
00000350: baa4 043e f539 6cbe 4a5c 4b3e 51f7 55be
00000360: be59 c1bc c515 56be 9db0 e23d cf3f 7dbd
00000370: d010 2f3d 0494 a13d 8981 43be 7c08 37be
00000380: 5912 acbd 2e46 4dbd 0aeb 393d 2ffd f4bd
00000390: 9ff6 0a3e 1cf4 0d3e 9a2d 983d 54bd e23d
000003a0: 9ad0 1fbd beee c5bc 5d32 3e3b e933 073c
000003b0: b208 8e3d 2780 eebd 3d79 1f3c 9d26 19bd
000003c0: 1fd7 8c3d fa04 8f3e 93c2 1d3d d931 15be
000003d0: 2cf2 323e a1e5 b0be 7399 61bd 6088 e23d
000003e0: 0731 403d ff93 df3d 2457 1d3e 5a77 a33d
000003f0: 2557 cc3b 5404 ddbb fbdd ab3c fb5d 60bd

fc3.bias f4 [10]
-0.0513052 -0.07244788 0.001702586 0.09828435 0.02647209 0.08612084 -0.03161823 0.011816648
0.095993176 0.047717437
00000000: 6725 52bd 8e5f 94bd 4e29 df3a 4e49 c93d
00000010: ffdb d83c 1f60 b03d 1e82 01bd 9d9a 413c
00000020: 1298 c43d 5c73 433d
