docker_items/model.pth (torch, 439732 bytes, 6 tensors)

fc1.weight f4 [128, 784]
0	0x3bc930e9	0.0061398637
1	0xbb462ce9	-0.003023917
2	0x3c89e11a	0.01683097
3	0x3b92b1c1	0.0044767563
4	0x3d256b8f	0.04038578
5	0x3bd4d19a	0.006494713
6	0x3ca751c7	0.020424737
7	0x3bc6f66a	0.0060718553
8	0x3b6790ed	0.0035334185
9	0xbce0fe99	-0.027465152
10	0xbc886355	-0.016648928
11	0x3c4491f5	0.0119976895
12	0x3cbc0745	0.022952685
13	0x3c9f7177	0.019463284
14	0x3c115ab5	0.008871724
15	0x3d1939dd	0.0374087
16	0x3c0c02ee	0.00854562
17	0x3c1170d5	0.008876999
18	0xbc9d82ec	-0.019227467
19	0xbcbdcf1a	-0.023170043
20	0x3c37e83d	0.0112248035
21	0x3ce72b25	0.028218815
22	0x3d1c5e15	0.03817566
23	0xbc376528	-0.011193551
24	0x3a3cf384	0.00072079175
25	0xbbf31473	-0.007418209
26	0x3aee2979	0.0018170319
27	0xbbb3c66c	-0.0054863
28	0xbce89bdc	-0.028394632
29	0x3c535ae4	0.012900088
30	0xbcca9f6f	-0.024734227
31	0xbb43db59	-0.002988538
32	0x3d08bc7f	0.03338289
33	0xbcf337ba	-0.029689658
34	0x3d0e6cfc	0.034771904
35	0xbc89e155	-0.01683108
36	0x3bc4bdba	0.0060040625
37	0xbc9bf1d1	-0.019036205
38	0xbc313352	-0.010815458
39	0x3cf3139f	0.029672442
40	0x3a8650db	0.0010247485
41	0xbc9b0ee1	-0.018927993
42	0x3c223dd2	0.009902434
43	0x3cf06213	0.02934364
44	0x3be2e322	0.006924049
45	0x3d0e414e	0.03473025
46	0xbce8245c	-0.02833765
47	0x3c456905	0.012048964
48	0xbcddb44e	-0.027063515
49	0x3c644258	0.013931833
50	0x3ce11c23	0.027479237
51	0xbc1cdf72	-0.009574758
52	0x3c7da5ac	0.015481394
53	0xbcc4d08c	-0.024025224
54	0x3ce08f85	0.027412185
55	0x3cbd63dd	0.023118908
56	0xbce54a2a	-0.027989466
57	0x3d07d924	0.033166066
58	0xbb863dc7	-0.00409672
59	0x3b295531	0.0025838132
60	0x3bd5ff7a	0.0065306993
61	0xbba0840f	-0.004898555
62	0x3c9ddcda	0.01927035
63	0x3c18922e	0.009312196
64	0xbbbfc3fd	-0.005852221
65	0x3c9d23c8	0.0191821
66	0x3cc1e097	0.023666663
67	0x3d180931	0.03711814
68	0x3c6d2bac	0.014475744
69	0x3cbf1a57	0.02332799
70	0xbc942357	-0.018083258
71	0x3d0a9513	0.033833575
72	0x3d04e939	0.03244898
73	0x3cefe4b7	0.029283864
74	0xbc647881	-0.013944746
75	0xbcda1e85	-0.026625881
76	0x3c316671	0.010827647
77	0x3c9e053e	0.019289609
78	0xba432995	-0.0007444856
79	0x3d1ba5bd	0.037999857
80	0x3c175459	0.009236419
81	0x3bddb7e2	0.0067663053
82	0xbccf6edb	-0.025321415
83	0x3d10115a	0.035172798
84	0xbc49d3b4	-0.01231854
85	0x3d1e5b07	0.03866103
86	0x3ccd2f99	0.02504711
87	0xbc9aaeb1	-0.018882127
88	0x3c8bd41c	0.017068915
89	0xbca3fd1c	-0.020018153
90	0xbb0e4b0f	-0.002171222
91	0x3c8f8aed	0.0175223
92	0x3cfc1b4b	0.030774733
93	0xbb56c231	-0.0032769556
94	0xbc8b1acc	-0.016980551
95	0x3ce09021	0.027412476
96	0xbc48b4e6	-0.012250161
97	0x3c0cb619	0.008588337
98	0xbc8a6d07	-0.016897691
99	0x3c6cefb0	0.014461443
100	0x3ce31377	0.027719242
101	0xbc667789	-0.014066585
102	0xbc1bc864	-0.009508226
103	0x3c98cd6a	0.018652637
104	0x3cb6331d	0.02224117
105	0xbbbab36d	-0.0056976588
106	0xbc8167a5	-0.015796492
107	0xbc4b9082	-0.01242459
108	0x3d1914eb	0.037373465
109	0xbcae915f	-0.021309553
110	0x3cdbdfbf	0.026840089
111	0x3cd10f15	0.025519887
112	0x3ba068d9	0.0048953113
113	0xbb90c923	-0.0044185086
114	0x3cb08749	0.021548884
115	0x3c6069e8	0.013697125
116	0x3ac49a9a	0.0014999688
117	0xbc7352a2	-0.014851244
118	0x3c7590d0	0.014988139
119	0x3c791e54	0.015204985
120	0xbcd2c01f	-0.025726376
121	0x3d23e917	0.040017214
122	0x3ceec911	0.02914861
123	0x3d206e27	0.03916755
124	0x3a041186	0.00050380116
125	0xbcc4112f	-0.023933975
126	0x38b7de9a	8.767583e-05
127	0x3d10604e	0.035248093
128	0xbceb7ea3	-0.028746909
129	0xbbb12f08	-0.005407218
130	0x3d023aab	0.03179423
131	0x3d261147	0.04054382
132	0xbc8e888a	-0.017399091
133	0x3d11470e	0.035468154
134	0xbcb182d1	-0.021668823
135	0x3c9d640a	0.019212741
136	0x3cb3fb4d	0.021970415
137	0xbc5bab61	-0.013407559
138	0xbccd8723	-0.025088852
139	0x3cdec40f	0.027193097
140	0x3d13be19	0.036069963
141	0x3cd56723	0.026050156
142	0x3d0dfaec	0.034663126
143	0x3b982311	0.004642852
144	0x3cd7ded9	0.02635138
145	0xbcd3eb6b	-0.025869092
146	0x3cbbdb05	0.022931585
147	0xbc47b2b3	-0.012188601
148	0x3c5b5698	0.013387345
149	0x3d080b3e	0.033213846
150	0xbc470e37	-0.012149385
151	0xbbe7a73c	-0.0070694964
152	0xbcb67fda	-0.022277761
153	0x3d1a5954	0.037682846
154	0x3c90f5ea	0.017695386
155	0xbc7184a6	-0.0147410985
156	0x3b1474c3	0.0022652603
157	0xbc361529	-0.011113443
158	0xbbadb8fd	-0.0053015933
159	0xbc082d3a	-0.008311564
160	0x3c99eada	0.018788744
161	0xbcaf45e7	-0.021395637
162	0x3c882856	0.016620796
163	0x3caa2823	0.020771092
164	0xbcb7ebef	-0.02245137
165	0x3c1afb9e	0.009459404
166	0xbcd10f1b	-0.025519898
167	0x3c0bf16a	0.008541444
168	0x3ce1aeab	0.027549108
169	0xbad52360	-0.0016261153
170	0x3cd09699	0.025462436
171	0xbc6813a5	-0.01416484
172	0x3d2470c5	0.040146608
173	0x3cde828f	0.027161865
174	0xbbd70af3	-0.0065625845
175	0x3ba464b9	0.00501689
176	0x3c321261	0.01086864
177	0xbc3131ca	-0.010815093
178	0x3d224df4	0.039625123
179	0x3c69a199	0.014259719
180	0x3c999c4e	0.01875129
181	0x3cc1b7e6	0.02364726
182	0xbbbb9b14	-0.005725274
183	0xbad37730	-0.0016133543
184	0x3b223869	0.0024752861
185	0x3c2eca38	0.01066833
186	0x3ce6b039	0.028160201
187	0x3d02b3cd	0.031909753
188	0xbcd6eedb	-0.026236942
189	0x3ca6937d	0.020334
190	0x3c9b9108	0.018990055
191	0xbcc71b8c	-0.024305128
192	0xbc16ecac	-0.0092117
193	0x3cbdd1b9	0.023171293
194	0x3ce6bf51	0.028167399
195	0xbcbdfd15	-0.023191968
196	0xbc4b42ee	-0.012406094
197	0x3be8282a	0.007084866
198	0x3ce314f5	0.027719954
199	0xbc8618f3	-0.016369319
200	0x3d1f1fed	0.038848806
201	0xbb495579	-0.0030721112
202	0xbc43b781	-0.011945606
203	0x3d25236b	0.04031698
204	0xbc98f373	-0.018670773
205	0xbcbf7599	-0.023371505
206	0xbc48ce39	-0.012256199
207	0x3c08e0e0	0.008354396
208	0x3be85365	0.0070900195
209	0xbbe69408	-0.0070366897
210	0x3cefb32c	0.02926024
211	0x3be5cebd	0.0070131705
212	0xbb077b76	-0.0020672954
213	0x3a81708e	0.0009875463
214	0x3c7caef6	0.015422573
215	0xbc756cd8	-0.014979564
216	0x3c2b2e41	0.0104480395
217	0x3c5bc668	0.013414003
218	0x3c325195	0.0108837085
219	0x3d22dad1	0.03975946
220	0xbbed3b8f	-0.007239766
221	0x3c08b15d	0.008343068
222	0x3bcbb499	0.0062165973
223	0x3c9352dc	0.017983846
224	0xbcc86211	-0.024460824
225	0x3cc4e20b	0.024033567
226	0x3cd4fdf5	0.026000002
227	0x3d084d33	0.033276748
228	0x3d02b860	0.031914115
229	0x3ce269d3	0.027638352
230	0x3b60191d	0.0034194656
231	0x3d07eb0e	0.03318315
232	0x3c264ae2	0.010149689
233	0xbcaa0131	-0.020752521
234	0x3cc3008c	0.023803972
235	0x3cefbce5	0.029264877
236	0x3c9bd824	0.019023962
237	0xbc8d839f	-0.017274676
238	0x3c968b0a	0.018376846
239	0xbbbaa919	-0.0056964275
240	0xbccb3f2b	-0.024810394
241	0x3c9d91c0	0.019234538
242	0xbc61031d	-0.013733652
243	0x3c001718	0.007818006
244	0xbbf7bd23	-0.0075603887
245	0x3cdecb59	0.027196573
246	0x3d17c9af	0.037057575
247	0x3ce61ee1	0.028090896
248	0x3cd64283	0.026154762
249	0x3d1ed627	0.03877845
250	0xbc8cdcff	-0.017195223
251	0xbcbe291c	-0.023212962
252	0x3c525b14	0.0128390975
253	0xbc1d29cc	-0.009592485
254	0x3ce10a2b	0.027470669
255	0xbcadbebf	-0.021209119

fc1.bias f4 [128]
0	0xbcffb9d5	-0.031216541
1	0xbc6669c7	-0.014063305
2	0x3cb93c4f	0.022611765
3	0xbc920446	-0.017824303
4	0xbbc69db5	-0.0060612806
5	0x3cd7024e	0.026246216
6	0x3cb88424	0.022523947
7	0xbcbf10d8	-0.023323461
8	0x3ca24a1f	0.019810734
9	0x3cd8ba45	0.026456008
10	0xbbdc0711	-0.0067147096
11	0x3ca03cae	0.019560184
12	0xbcdc2bc5	-0.02687634
13	0xbd4217d8	-0.04738602
14	0x3c4c7569	0.012479165
15	0x3cf3e929	0.029774265
16	0xb9d0f549	-0.00039855603
17	0xbcb111b1	-0.021614881
18	0xbc5e6c04	-0.013575558
19	0xba31907d	-0.00067735446
20	0x3cd3a77c	0.025836699
21	0xbccd858d	-0.025088096
22	0xbc213fb2	-0.009841846
23	0xbd06ee51	-0.03294212
24	0x3d2f050f	0.042729434
25	0xbc9d75df	-0.019221244
26	0x3b382aee	0.002810176
27	0xbb3e55b6	-0.0029042787
28	0x3d4d78a2	0.050163873
29	0xbcb9269b	-0.022601416
30	0xbc17a508	-0.009255655
31	0x3b8cc090	0.004295416
32	0xbcec654a	-0.028856892
33	0xbcc856c6	-0.02445544
34	0x3cbaa564	0.022783943
35	0x3b836587	0.0040099057
36	0x3d03f498	0.032215685
37	0xbbfa8e1a	-0.0076463344
38	0xbc6f7f69	-0.014617779
39	0xbc625e50	-0.013816431
40	0x3d2393ac	0.039935753
41	0xbcce8f14	-0.02521471
42	0x3b51b5a8	0.0031999145
43	0x3b9a966d	0.004717639
44	0xbc04d4d0	-0.008107379
45	0xbc8beb50	-0.01707998
46	0x3cdab88f	0.026699333
47	0x3b6ee5e9	0.0036452955
48	0x3cac4c7c	0.021032564
49	0xbbc71321	-0.0060752784
50	0xbd1507b5	-0.036384303
51	0xbc64a62f	-0.013955637
52	0x3d1757dc	0.036949024
53	0xbcb62906	-0.022236358
54	0x3cc39e17	0.023879094
55	0x3bd48ce9	0.0064865244
56	0xbc8d7f81	-0.017272713
57	0xbc89b9c1	-0.016812207
58	0x3ca4d2c8	0.02012004
59	0xbbd5986c	-0.0065184142
60	0x3c67a808	0.014139183
61	0xbcfeb131	-0.03109035
62	0xbd3a417b	-0.045472603
63	0x3c358cc9	0.011080929
64	0x3adf3fbe	0.0017032546
65	0x3c399bba	0.011328632
66	0x3c641f56	0.013923487
67	0x3d147987	0.03624871
68	0xbc0fcedb	-0.0087773455
69	0x3cbe624d	0.023240233
70	0xbcf21225	-0.029549668
71	0xbb6c91b6	-0.0036097593
72	0x3ca33ea1	0.019927325
73	0x3c93ad51	0.01802698
74	0xbc09e881	-0.00841725
75	0x3ccf2070	0.025284022
76	0x3d0384c7	0.03210905
77	0x3c5c0d26	0.013430869
78	0xbd1866f2	-0.03720755
79	0x3cb19fbb	0.02168261
80	0x3c8927a7	0.01674254
81	0xbcb6a0b1	-0.02229342
82	0xbaa7da41	-0.0012806134
83	0x3b5fc1e4	0.0034142667
84	0xbc40ce5b	-0.011767949
85	0xbcae969e	-0.021312054
86	0x3cfa6a6b	0.030568322
87	0x3cb0b432	0.021570299
88	0xbd571b97	-0.052516546
89	0xbd27ae5c	-0.040937766
90	0x3caac838	0.020847425
91	0xbce4e08d	-0.027939105
92	0xbc93feca	-0.018065829
93	0xbd20b2aa	-0.039232887
94	0x3c40ed39	0.011775308
95	0xbc8a67b3	-0.01689515
96	0x3cd5bf81	0.026092293
97	0x3c8024cb	0.015642544
98	0x3ccae0d9	0.024765419
99	0x3c44da5d	0.0120149525
100	0x3ca0f10d	0.019646192
101	0x3be6eff9	0.00704765
102	0x3c7b8cc7	0.015353388
103	0x3bb35149	0.0054723364
104	0x3c854476	0.016267996
105	0xbca4a501	-0.020098211
106	0xbcdfd731	-0.027324291
107	0x3d59aaa5	0.053141255
108	0xbcbde793	-0.023181712
109	0xbc81315c	-0.015770607
110	0x3cc238ec	0.023708783
111	0x3a30fe91	0.00067518005
112	0x3cf7e639	0.030261146
113	0xbc8a1ba8	-0.01685889
114	0xbd0edca3	-0.034878384
115	0x3ce44fd6	0.0278701
116	0xbc7a992b	-0.015295307
117	0xbac23086	-0.0014815487
118	0xbcfc20d8	-0.03077738
119	0xbca40e09	-0.020026224
120	0x3ce03151	0.027367266
121	0xbc95e36e	-0.018296923
122	0xbcc892eb	-0.024484118
123	0xbd09539e	-0.03352701
124	0xbcd9390e	-0.026516464
125	0x3c2ec747	0.010667629
126	0x3c5042b0	0.012711212
127	0x3d090fcc	0.03346233

fc2.weight f4 [64, 128]
0	0x3c7fc9e0	0.015612096
1	0xbde236e1	-0.110456236
2	0xbda5cfe0	-0.0809629
3	0x3a54dd74	0.0008120157
4	0xbd9a37b6	-0.07530157
5	0x3cc57d6a	0.024107654
6	0xbde4d35a	-0.111731246
7	0xbd5678c1	-0.052361254
8	0x3b58b41b	0.0033066336
9	0xbca8e409	-0.020616548
10	0x3d2f970c	0.04286866
11	0x3c0e09c7	0.008669323
12	0x3cb40894	0.021976747
13	0xbd07ec4c	-0.033184335
14	0x3d9b267e	0.07575701
15	0x3d88e463	0.06684186
16	0x3d9ba7a1	0.07600332
17	0x3bd62610	0.006535299
18	0x3b8defd5	0.0043315687
19	0xbcaa4571	-0.020785065
20	0xbdc2d8f4	-0.09514037
21	0xbdb03863	-0.08604505
22	0xbd96a3d6	-0.07355468
23	0xbafa8ba2	-0.00191151
24	0xbd51da5a	-0.051233627
25	0xbd1210dc	-0.03566061
26	0xbd327e58	-0.043577522
27	0x3d96529e	0.07339977
28	0xbdae3263	-0.08505704
29	0xbcd55bad	-0.026044691
30	0xbce1a94c	-0.027546547
31	0xbd6b155e	-0.057393424
32	0x3c9f45ae	0.019442406
33	0x3d639a5e	0.055567138
34	0xbdda612f	-0.106630675
35	0xbd82bf61	-0.06384159
36	0xbd5c6d82	-0.053815372
37	0x3d3ed277	0.046587434
38	0xbde82a17	-0.11336153
39	0xbd75679b	-0.05991326
40	0xbd94efbd	-0.07272289
41	0xbd47eb8b	-0.048808616
42	0x3bdbec6f	0.0067115347
43	0xbd7bab43	-0.061442625
44	0xbddff920	-0.10936189
45	0x3c641e56	0.013923248
46	0x3b9edc18	0.0048480146
47	0x3c97d9d4	0.018536486
48	0xbd180008	-0.037109405
49	0x3d834a17	0.06410616
50	0xbd01b2b6	-0.031664573
51	0xbc7a0f20	-0.015262395
52	0xbc999cb7	-0.018751485
53	0x3cd16098	0.025558755
54	0x3bc90da0	0.0061356574
55	0xbd6ecc2d	-0.058300186
56	0xbd773064	-0.060348883
57	0xbd7ba162	-0.061433204
58	0x3caa2fe8	0.020774797
59	0xbce0b6b5	-0.027430872
60	0xbbb8c300	-0.00563848
61	0xbca4179f	-0.020030795
62	0x3c06ce47	0.008227891
63	0xbd76d35c	-0.06026016
64	0xbdf354bc	-0.11881396
65	0xbdbc58cd	-0.09196625
66	0x3b802238	0.003910329
67	0x3c9e4f8b	0.019325038
68	0xbda080d1	-0.0783707
69	0xbcd551d8	-0.026040003
70	0xbd9916d8	-0.0747506
71	0x3c984fd9	0.018592762
72	0x3d86f765	0.065901555
73	0xbdf30834	-0.11866799
74	0x3c8bfb24	0.017087527
75	0x3cd16faa	0.02556594
76	0xbd7bb441	-0.0614512
77	0xbd9c4f19	-0.07632274
78	0x3d548da6	0.0518929
79	0xbdd8953e	-0.10575341
80	0xbd8e4574	-0.06946841
81	0x3d41f57a	0.047353245
82	0xbdf8be19	-0.12145633
83	0x3d7489de	0.059701793
84	0xbba1d1dc	-0.0049383473
85	0x3b950767	0.0045480016
86	0xbd96c592	-0.07361902
87	0xbcdbdfef	-0.026840178
88	0xbc9d8f59	-0.019233393
89	0xbd9d1aca	-0.07671125
90	0xbd200bdf	-0.03907382
91	0x3c498491	0.012299673
92	0xbd1ea02b	-0.038726967
93	0xbba4a638	-0.0050246976
94	0xbd379113	-0.044816088
95	0xbcb12098	-0.021621987
96	0xbd71975c	-0.05898224
97	0xbd841381	-0.064490326
98	0x3c909a84	0.017651804
99	0xbd6c8106	-0.057740234
100	0xbd1b6f1d	-0.037947763
101	0x3d39c0c1	0.04534984
102	0x3d51904e	0.05116301
103	0xbdcfb0da	-0.10141154
104	0x3d103286	0.035204433
105	0xbcb56aa8	-0.022145584
106	0xbdae2dde	-0.08504842
107	0x3c8e4614	0.0173674
108	0xbd5be44e	-0.053684525
109	0xbd35b4fc	-0.044362053
110	0xbc20cda8	-0.009814657
111	0xbe0803b6	-0.13282666
112	0xbdb07f71	-0.086180575
113	0xbcc42314	-0.023942508
114	0x3cfb37ba	0.030666221
115	0x3ca7f735	0.02050362
116	0xbc206888	-0.009790547
117	0xbcb596f9	-0.022166716
118	0xbd1efbb1	-0.03881425
119	0xbcf919ae	-0.030407753
120	0x3c81a919	0.015827702
121	0xbdcf976e	-0.10136305
122	0xbdcaaf4d	-0.09896717
123	0x3b737400	0.0037147999
124	0xbd9fe6f8	-0.07807726
125	0xbc810483	-0.015749222
126	0x3d0b7ea8	0.034056336
127	0x3cd719be	0.026257392
128	0x3c22f270	0.009945497
129	0x3d5a9b01	0.05337048
130	0x3c526f6e	0.01284395
131	0x3e82232e	0.25417465
132	0x3db125c3	0.086497806
133	0x3d9d5c17	0.0768358
134	0xbbedaa8a	-0.007252996
135	0xbd848bfb	-0.06472012
136	0xbd9dddcc	-0.0770832
137	0x3d0cd7da	0.03438554
138	0x3dc56830	0.09639013
139	0x3d93f4b8	0.07224411
140	0x3dc43fdc	0.09582493
141	0x3d0a60b9	0.03378365
142	0x3d115527	0.0354816
143	0x3d587a1b	0.052850824
144	0x3dac3b75	0.08409778
145	0xbe014b75	-0.12626441
146	0x3e3013a5	0.17194994
147	0xbe50e7e9	-0.20400967
148	0x3e1e22ec	0.15443009
149	0xbde6f648	-0.11277443
150	0xbb937b08	-0.0045007505
151	0x3d4b4c78	0.049633473
152	0x3d6aefd1	0.057357613
153	0x3dbedb70	0.09319198
154	0x3dcd400d	0.10021982
155	0x3b9a6ea0	0.0047128946
156	0x3da024bf	0.07819509
157	0x38ad145e	8.2530765e-05
158	0x3d64b551	0.05583698
159	0x3e3af22a	0.18256441
160	0xbe98ec52	-0.29867798
161	0xbd712f40	-0.05888295
162	0x3d3f2651	0.0466674
163	0x3da42a1e	0.08015846
164	0x3d62f119	0.05540571
165	0xbd23bafd	-0.039973248
166	0x3e2419f9	0.16025533
167	0x3d215162	0.039384253
168	0x3e6921ec	0.22766846
169	0xbd8ecbd8	-0.06972474
170	0x3cc5ed09	0.024160879
171	0xbdb550d3	-0.088533066
172	0xbd73ddfd	-0.059537876
173	0xbd5a48aa	-0.053291954
174	0x3bcf8e6f	0.006334118
175	0x3c3702bd	0.011170086
176	0xbd0219f5	-0.031763036
177	0xbd943884	-0.07237342
178	0x3c7b3d46	0.015334433
179	0xbcdbac9f	-0.02681571
180	0x3e9eb2e3	0.30995855
181	0x3c8d9a18	0.017285392
182	0xbd72f3e2	-0.059314616
183	0xbd431833	-0.0476305
184	0xbe0dbc6d	-0.1384141
185	0xbcdbe071	-0.02684042
186	0xbd1125f6	-0.035436593
187	0xbc9b6759	-0.018970178
188	0xbcab3411	-0.02089885
189	0xbe2c25d0	-0.168113
190	0xbd791a02	-0.06081582
191	0x3ba31a89	0.0049775285
192	0xbc7aa6d9	-0.015298569
193	0x3bb9fc65	0.0056758397
194	0xbd8e9584	-0.069621116
195	0xbc475f2d	-0.012168688
196	0xbc87a583	-0.016558414
197	0xbd2f2d86	-0.042768024
198	0x3e62647e	0.22108647
199	0xbe17d67b	-0.14827912
200	0x3c771e28	0.015082873
201	0x3ce2a285	0.027665386
202	0x3dc49b06	0.09599881
203	0x3d74dc31	0.059780303
204	0xbe0ec28d	-0.13941403
205	0xbd776329	-0.0603973
206	0x3cc87217	0.024468465
207	0xbe118a45	-0.14212902
208	0x3b05b8cd	0.002040434
209	0xba8e4100	-0.0010853112
210	0x3d8070b4	0.062714964
211	0x3b458cb4	0.003014368
212	0xbe20b5ec	-0.15694398
213	0x3b7ccd7d	0.003857463
214	0xbe2d1f54	-0.16906482
215	0x3bc45330	0.005991362
216	0xbdb91b78	-0.090384424
217	0x3b166be9	0.0022952503
218	0xbd5f7387	-0.054553535
219	0xbdb23fe9	-0.08703596
220	0x3dbf70a7	0.093476586
221	0xbdb59a4c	-0.088673204
222	0x3d18cc5a	0.03730426
223	0x3d980be7	0.07424145
224	0xbd4192ac	-0.047259018
225	0xbdb1b80e	-0.08677684
226	0x3d36c665	0.044622798
227	0x3e135401	0.14387514
228	0xbd53eae3	-0.051737677
229	0x3d5512b8	0.052019805
230	0x3c912001	0.017715456
231	0xbdce8001	-0.100830086
232	0x3bd5ba41	0.0065224473
233	0xbda1a841	-0.0789342
234	0xbc7f3df3	-0.015578735
235	0xbe2e4976	-0.1702021
236	0xbd4f311d	-0.050583947
237	0xbd8523d6	-0.06500976
238	0xbd0bc5b7	-0.034124102
239	0xbc06110f	-0.008182778
240	0x3cc4ee90	0.024039537
241	0x3d664772	0.05622048
242	0xbd03eb66	-0.032206915
243	0xbdde41b5	-0.10852376
244	0x3cb8cb04	0.022557743
245	0x3d1c1263	0.038103472
246	0xbc903952	-0.017605457
247	0xbc734718	-0.014848493
248	0xb9ac3165	-0.00032843198
249	0xbe25beb0	-0.16186023
250	0xbd2a8877	-0.04163405
251	0xba6966c8	-0.000890356
252	0xbd40bfed	-0.047058035
253	0xbcd8829d	-0.026429469
254	0xbd9ff326	-0.07810049
255	0xbd541418	-0.051776975

fc2.bias f4 [64]
0	0xbdd661c1	-0.10467864
1	0xbce1d292	-0.027566228
2	0x3c4045b1	0.011735366
3	0x3d20605c	0.039154395
4	0x3d3836b8	0.04497406
5	0xbd8500e4	-0.064943105
6	0x3e1be003	0.15222172
7	0x3d3a9010	0.045547545
8	0xbd6adb0f	-0.057337817
9	0x3daa5c29	0.083183594
10	0xbdc37a86	-0.09544854
11	0xbddc63a8	-0.107611954
12	0x3dfff1cf	0.12497293
13	0xbd48f4cc	-0.04906158
14	0x3c866382	0.01640487
15	0x3b383d84	0.0028112838
16	0x3dcc6a46	0.099812075
17	0x3cf16c4c	0.029470585
18	0xbd43aa1a	-0.047769643
19	0x3d0a7dfc	0.033811554
20	0x3d846b9d	0.06465838
21	0xbd107222	-0.035265096
22	0xbd868160	-0.06567645
23	0xbdfb6377	-0.12274831
24	0x3d95cfc1	0.073150165
25	0xbe00c977	-0.12576853
26	0xbb835e2f	-0.0040090303
27	0xbd60c877	-0.05487868
28	0x3e2fa173	0.17151432
29	0xbcb77d08	-0.022398487
30	0xbd4aabbf	-0.049480196
31	0x3c5b2f05	0.01337791
32	0x3e0b760e	0.13619253
33	0x3d74eba8	0.05979505
34	0xbdaeed52	-0.08541359
35	0x3d519a9a	0.05117283
36	0x3d41bc18	0.04729852
37	0x3dbd1d17	0.09234064
38	0x3c91c5d1	0.017794522
39	0xbd48bf6d	-0.049010683
40	0xbd492314	-0.04910572
41	0x3d942541	0.07233668
42	0xbd36852b	-0.044560593
43	0xbe10c9d0	-0.14139485
44	0xbd44620a	-0.04794506
45	0x3d0ec932	0.034859844
46	0x3d396515	0.045262415
47	0x3e20b5a9	0.15694298
48	0xbd8ba8c7	-0.06819301
49	0x3d2d8ec3	0.042372476
50	0x3dd87bd0	0.1057049
51	0xbdc901c4	-0.0981479
52	0x3dbba1a0	0.09161687
53	0x3bfdd55e	0.0077463826
54	0xbd1bdc6d	-0.03805201
55	0xbdab4fe8	-0.0836485
56	0x3a911697	0.0011069354
57	0x3e026a2a	0.12735811
58	0xbddd63e4	-0.10810068
59	0x3dd68989	0.104754515
60	0x3de1e327	0.11029654
61	0x3cd3aed0	0.025840193
62	0xbcaca914	-0.021076716
63	0xbdf6a32b	-0.120428406

fc3.weight f4 [10, 64]
0	0x3d030a10	0.03199202
1	0x3e03f816	0.12887606
2	0xbb9bfbc1	-0.004760236
3	0x3e12aa4a	0.14322773
4	0xbd0ec25c	-0.034853324
5	0xbe54f099	-0.20794906
6	0xbeae4457	-0.34036514
7	0x3e0d1d2d	0.13780661
8	0xbde86d50	-0.11348975
9	0xbe7b5a44	-0.24546152
10	0xbece1a9f	-0.40254685
11	0x3dd265c4	0.102733165
12	0xbe4376cc	-0.19088286
13	0x3e300dca	0.1719276
14	0xbd9ce146	-0.07660155
15	0xbe245bbe	-0.16050622
16	0xbe57308f	-0.21014617
17	0x3d4f1782	0.05055953
18	0x3c3bc90f	0.01146151
19	0x3d3d708e	0.04624992
20	0xbd905ba9	-0.07048733
21	0x3d3e5750	0.046469986
22	0x3ce7baba	0.02828728
23	0xbe3a7758	-0.18209589
24	0x3d887824	0.0666354
25	0xbd5afb1d	-0.053462137
26	0xbce73a2a	-0.028225977
27	0xbdcaaaa9	-0.09895832
28	0xbe521f31	-0.20519711
29	0xbd839cc2	-0.064263836
30	0x3da4a6e9	0.08039648
31	0xbd270c01	-0.040782932
32	0x3d960597	0.07325285
33	0x3e50cefd	0.2039146
34	0x3d8422f7	0.064519815
35	0xbb83f07b	-0.0040264702
36	0xbe9bec3e	-0.30453676
37	0xbe9d4aac	-0.30721033
38	0xbe7b3831	-0.24533154
39	0xbd80e4fc	-0.06293675
40	0x3dee4059	0.11633367
41	0xbe075830	-0.13217235
42	0xbcd691ac	-0.026192509
43	0xbdac5f85	-0.084166564
44	0xbdb8940c	-0.09012613
45	0xbe11c95d	-0.1423697
46	0xbe7e5fb2	-0.24841192
47	0xbe169214	-0.14704162
48	0xbdd3a109	-0.103334494
49	0x3d118718	0.035529226
50	0xbdb8ad75	-0.09017459
51	0x3e988f04	0.29796612
52	0x3da61439	0.08109326
53	0xbebe1012	-0.37121636
54	0x3da00552	0.07813515
55	0x3d7c8fc6	0.06166055
56	0x3db583aa	0.088630036
57	0xbdb84e0a	-0.0899926
58	0xbe0f835f	-0.14014958
59	0xbbd8b4c5	-0.0066133463
60	0x3db9026b	0.09033664
61	0x3d945a86	0.072438285
62	0xbeb27a92	-0.3485914
63	0xbe888dff	-0.26670834
64	0x3d9159b6	0.07097189
65	0xbd0bb99f	-0.03411257
66	0x3cde3920	0.027126849
67	0xbebaf01c	-0.36511314
68	0x3d94d608	0.07267386
69	0x3e38853f	0.1801958
70	0xbd7363de	-0.059421413
71	0xbe97eefc	-0.29674518
72	0xbedca765	-0.43096462
73	0x3e7d98b1	0.24765278
74	0x3d904f9d	0.07046435
75	0x3e21deb0	0.15807605
76	0xbe2dc883	-0.1697102
77	0xbe51bf8c	-0.20483226
78	0xbb839280	-0.004015267
79	0x3dc81b95	0.09770886
80	0x3e08c296	0.13355479
81	0xbd9545cb	-0.072887026
82	0xbda7e15d	-0.081972815
83	0xbddd9174	-0.108187586
84	0x3e0590f3	0.13043575
85	0x3d1ef314	0.038806036
86	0xbd0e4bea	-0.034740366
87	0xbc23d939	-0.01000052
88	0x3ddd1fb1	0.1079706
89	0x3e63e9a1	0.22257091
90	0x3daaf082	0.083466545
91	0x3dd3d2d8	0.1034295
92	0xbd426f02	-0.047469147
93	0xbdf0312c	-0.11728129
94	0x3e18bdc8	0.14916146
95	0xbc0f07f7	-0.008729926
96	0xbde6d7ed	-0.11271653
97	0xbeb9a6ae	-0.3625998
98	0x3e01ca71	0.12674882
99	0x3c7080c1	0.014679135
100	0xbe842dfc	-0.25816333
101	0xbe8fd0a2	-0.28088862
102	0xbb98bc2a	-0.004661103
103	0xbe154001	-0.14575197
104	0xbd55759d	-0.052114118
105	0xbc928672	-0.017886374
106	0x3d8b3978	0.06798071
107	0x3e170b0e	0.14750311
108	0xbde8c457	-0.11365574
109	0x3dc63e5b	0.09679862
110	0xbdc541ac	-0.096316665
111	0xbdc54fdd	-0.09634373
112	0x3c341f6f	0.0109938225
113	0xbe07c91f	-0.13260315
114	0xbdbc1909	-0.091844626
115	0x3d9f050d	0.07764635
116	0x3ca91780	0.020641088
117	0x3e50d656	0.20394263
118	0xbda3fd12	-0.08007254
119	0xbeb08b38	-0.34481215
120	0x3ea3161d	0.3185281
121	0xbd74da19	-0.059778307
122	0x3da2ef99	0.07955856
123	0xbe69795a	-0.22800198
124	0xbd2fe170	-0.042939603
125	0x3d08db3b	0.0334122
126	0x3e5d7c8c	0.21629542
127	0x3ddbb2a3	0.107274316
128	0x3d0b3c20	0.033992887
129	0x3e5394ed	0.2066228
130	0xbe0e1e57	-0.13878761
131	0x3dab9520	0.08378053
132	0xbdd4f052	-0.103974
133	0xbe42f1fe	-0.19037625
134	0xbe813193	-0.25233135
135	0xbef7cae4	-0.4839698
136	0x3e22bd78	0.15892589
137	0xbe905743	-0.28191575
138	0x3d44a24e	0.04800635
139	0x3db3c2af	0.08777367
140	0xbe1f6508	-0.15565884
141	0xbc921b6f	-0.017835347
142	0x3e2a9620	0.1665883
143	0xbe004acf	-0.12528537
144	0x3da6a966	0.08137779
145	0xbcbc7a84	-0.023007639
146	0xbdb05d27	-0.086115174
147	0xbd05a19a	-0.03262482
148	0x3d04310d	0.03227334
149	0xbe28f9b2	-0.16501501
150	0xbe675d33	-0.22594146
151	0x3e3e4488	0.1858083
152	0x3e6200b3	0.22070579
153	0xbd8ba386	-0.06818299
154	0xbe47965d	-0.19490953
155	0xbd8a28a7	-0.06746035
156	0x3c2802f6	0.010254612
157	0xbdc29eca	-0.09502943
158	0x3da8629b	0.082219325
159	0x3d1ed337	0.03877565
160	0xbe4df757	-0.20113884
161	0xbd8efccd	-0.06981812
162	0x3e781df7	0.2423018
163	0x3d7c7801	0.061637882
164	0x3b8c9fbd	0.004291503
165	0xbd625c63	-0.055263888
166	0x3d175aec	0.036951944
167	0xbe8531ce	-0.2601456
168	0x3e92f95d	0.28705874
169	0x3e169801	0.14706422
170	0x3db6d357	0.089270286
171	0xbe718059	-0.23584117
172	0xbda0e608	-0.07856375
173	0x3c5b5ced	0.013388854
174	0xbe81b3ad	-0.25332394
175	0x3db2699e	0.08711551
176	0x3d5a5d51	0.05331165
177	0x3e0c22b2	0.1368511
178	0x3e3b6f64	0.18304211
179	0x3e278091	0.16357638
180	0xbc3ec9a1	-0.011644752
181	0x3e495393	0.19660787
182	0x3c92a8b8	0.017902717
183	0xbce19475	-0.02753661
184	0x3c6113a1	0.01373759
185	0xbe10e8bb	-0.1415128
186	0xbcef0e3d	-0.029181594
187	0x3d3781ee	0.044801645
188	0x3e12ddd5	0.14342435
189	0xbdba97f7	-0.09111016
190	0xbe5ee0ca	-0.21765438
191	0x3e629539	0.22127236
192	0x3d2538f6	0.040337525
193	0xbe89b735	-0.26897588
194	0x3dc6caf0	0.09706676
195	0x3d3d57fe	0.046226494
196	0xbe52ee47	-0.20598708
197	0x3e2d8002	0.16943362
198	0x3db05fa0	0.08611989
199	0x3dcbd7de	0.09953283
200	0x3dfc7c5d	0.12328408
201	0xbe92da1c	-0.2868203
202	0x3d317cbe	0.043331854
203	0xbbf5e686	-0.007504287
204	0xbe5d1ae4	-0.21592289
205	0x3d8abe28	0.06774551
206	0x3e41aaff	0.18912886
207	0xbe6dada8	-0.23210776
208	0xbe18eea6	-0.14934787
209	0xbdbfbbd6	-0.09361999
210	0x3c8f44bb	0.017488828
211	0xbd31d247	-0.043413427
212	0x3e0e2633	0.1388176
213	0x3d994970	0.0748471
214	0x3cb22632	0.021746729
215	0x3dccb235	0.09994928
216	0xbe24c60e	-0.16091177
217	0xbe3b19bb	-0.18271534
218	0xbe789b57	-0.24278007
219	0xbcf8fb02	-0.030393127
220	0xbd8d80b1	-0.069093116
221	0xbe0fa87a	-0.14029112
222	0x3d6fc013	0.058532786
223	0x3d9f4094	0.07775989
224	0xbe1edc0b	-0.15513627
225	0xbdd5e961	-0.10444904
226	0xbda018f0	-0.078172565
227	0xbc8b8ce3	-0.017034953
228	0x3d5fd924	0.05465044
229	0x3e60b32e	0.21943352
230	0xbd48d75c	-0.049033508
231	0xbe9bf6ba	-0.30461675
232	0xbe33109a	-0.17486802
233	0xbb8c095d	-0.004273577
234	0x3c07050c	0.008240949
235	0xbe20b311	-0.15693308
236	0x3d5bcdc5	0.053663034
237	0xbdc1d665	-0.09464721
238	0x3df68614	0.12037292
239	0x3c00bb36	0.007857135
240	0x3d1911e6	0.037370585
241	0xba1f8fe8	-0.00060868124
242	0xbe450177	-0.1923884
243	0xbd6c6d51	-0.05772144
244	0x3df3f09b	0.11911126
245	0x3e4d4d59	0.20049037
246	0xbe146c06	-0.14494333
247	0xbe3b731a	-0.18305627
248	0xbea35232	-0.31898648
249	0x3dc84225	0.09778241
250	0x3da22684	0.079175025
251	0x3e24bb22	0.1608701
252	0xbe0216da	-0.1270403
253	0x3e29fbcc	0.16599959
254	0x3e485693	0.19564275
255	0xbcbe4ea3	-0.023230856

fc3.bias f4 [10]
0	0xbcae79ec	-0.021298371
1	0xbabac960	-0.0014250688
2	0x3bac6ad1	0.005261757
3	0x3ceadfb3	0.028671121
4	0xbc834ad1	-0.016026886
5	0xbe00ca17	-0.12577091
6	0xbe07e87c	-0.1327228
7	0xbd6237e0	-0.055229068
8	0x3e17c733	0.14822082
9	0x3dc33ce4	0.09533098
